…
          "base_uri": "https://localhost:8080/"
        },
        "outputId": "47b6b14d-2d1c-4ff7-a568-2981e82ac9ca"
      },
      "outputs": [
        {
          "output_type": "stream",
          "name": "stdout",
          "text": [
            "channels_last\n",
            "Model: \"sequential\"\n",
            "_________________________________________________________________\n",
            " Layer (type)                Output Shape              Param #   \n",
            "=================================================================\n",
            " permute (Permute)           (None, 84, 84, 4)         0         \n",
            "                                                                 \n",
            " conv2d (Conv2D)             (None, 84, 84, 32)        8224      \n",
            "                                                                 \n",
            " activation (Activation)     (None, 84, 84, 32)        0         \n",
            "                                                                 \n",
            " max_pooling2d (MaxPooling2D  (None, 42, 42, 32)       0         \n",
            " )                                                               \n",
            "                                                                 \n",
            " conv2d_1 (Conv2D)           (None, 42, 42, 64)        32832     \n",
            "                                                                 \n",
            " activation_1 (Activation)   (None, 42, 42, 64)        0         \n",
            "                                                                 \n",
            " conv2d_2 (Conv2D)           (None, 42, 42, 128)       73856     \n",
            "                                                                 \n",
            " activation_2 (Activation)   (None, 42, 42, 128)       0         \n",
            "                                                                 \n",
            " flatten (Flatten)           (None, 225792)            0         \n",
            "                                                                 \n",
            " dense (Dense)               (None, 128)               28901504  \n",
            "                                                                 \n",
            " activation_3 (Activation)   (None, 128)               0         \n",
            "                                                                 \n",
            " dense_1 (Dense)             (None, 6)                 774       \n",
            "                                                                 \n",
            " activation_4 (Activation)   (None, 6)                 0         \n",
            "                                                                 \n",
            "=================================================================\n",
            "Total params: 29,017,190\n",
            "Trainable params: 29,017,190\n",
            "Non-trainable params: 0\n",
            "_________________________________________________________________\n",
            "None\n"
…
