…
colab":{"base_uri":"https://localhost:8080/"},"executionInfo":{"status":"ok","timestamp":1750789301306,"user_tz":-120,"elapsed":1666,"user":{"displayName":"Marta Castillo","userId":"04849947454605223429"}},"outputId":"8389b34a-1821-461b-c6bd-0843d918d7f5"},"outputs":[{"output_type":"stream","name":"stdout","text":["channels_last\n","Model: \"sequential\"\n","_________________________________________________________________\n"," Layer (type)                Output Shape              Param #   \n","=================================================================\n"," permute (Permute)           (None, 84, 84, 4)         0         \n","                                                                 \n"," conv2d (Conv2D)             (None, 20, 20, 32)        8224      \n","                                                                 \n"," max_pooling2d (MaxPooling2D  (None, 10, 10, 32)       0         \n"," )                                                               \n","                                                                 \n"," conv2d_1 (Conv2D)           (None, 4, 4, 64)          32832     \n","                                                                 \n"," conv2d_2 (Conv2D)           (None, 2, 2, 64)          36928     \n","                                                                 \n"," flatten (Flatten)           (None, 256)               0         \n","                                                                 \n"," dense (Dense)               (None, 512)               131584    \n","                                                                 \n"," dense_1 (Dense)             (None, 6)                 3078      \n","                                                                 \n","=================================================================\n","Total params: 212,646\n","Trainable params: 212,646\n","Non-trainable params: 0\n","_________________________________________________________________\n","None\n"]}],"source":["# Next, we build our model. We use the same model that was described by M
…
